…
ha_l=2.0, optimizer='adam', linear_prob=False, no_pretrain=False, checkpoint_path=None, use_cfg=False, logging='False', scheduler=False, batch_size=512, sampling_method='saint', label_rate=1.0, data_dir='/home/yunfei/spatial_benchmarking/benchmarking_data', lam=1.0, full_graph_forward=False, delayed_ema_epoch=0, replace_rate=0.0, momentum=0.996, load_model='False', num_features=3088)
=== Use sce_loss and alpha_l=2.0 ===
num_encoder_params: 1599072, num_decoder_params: 1608240, num_params_in_total: 3245826
PreModel(
  (encoder): GAT(
    (gat_layers): ModuleList(
      (0): GATConv(
        (fc): Linear(in_features=3088, out_features=512, bias=False)
        (feat_drop): Dropout(p=0.0, inplace=False)
        (attn_drop): Dropout(p=0.0, inplace=False)
        (leaky_relu): LeakyReLU(negative_slope=0.2)
        (activation): ELU(alpha=1.0)
      )
      (1): GATConv(
        (fc): Linear(in_features=512, out_features=32, bias=False)
        (feat_drop): Dropout(p=0.0, inplace=False)
        (attn_drop): Dropout(p=0.0, inplace=False)
        (leaky_relu): LeakyReLU(negative_slope=0.2)
      )
    )
    (head): Identity()
  )
  (decoder): GAT(
    (gat_layers): ModuleList(
      (0): GATConv(
        (fc): Linear(in_features=32, out_features=512, bias=False)
        (feat_drop): Dropout(p=0.0, inplace=False)
        (attn_drop): Dropout(p=0.0, inplace=False)
        (leaky_relu): LeakyReLU(negative_slope=0.2)
        (activation): ELU(alpha=1.0)
      )
      (1): GATConv(
        (fc): Linear(in_features=512, out_features=3088, bias=False)
        (feat_drop): Dropout(p=0.0, inplace=False)
        (attn_drop): Dropout(p=0.0, inplace=False)
        (leaky_relu): LeakyReLU(negative_slope=0.2)
      )
    )
    (head): Identity()
  )
  (encoder_to_decoder): Linear(in_features=32, out_features=32, bias=False)
  (projector): Sequential(
    (0): Linear(in_features=32, out_features=512, bias=True)
    (1): PReLU(num_parameters=1)
    (2): Linear(in_features=512, out_features=32, bias=True)
  )
  (projector_ema): Sequential(
    (0): Linear(in_features=32, out_features=512, bias=True)
    (1): PReLU(num_parameters=1)
    (2): Linear(in_features=512, out_features=32, bias=True)
  )
  (predictor): Sequential(
    (0): PReLU(num_parameters=1)
    (1): Linear(in_features=32, out_features=32, bias=True)
  )
  (encoder_ema): GAT(
    (gat_layers): ModuleList(
      (0): GATConv(
        (fc): Linear(in_features=3088, out_features=512, bias=False)
        (feat_drop): Dropout(p=0.0, inplace=False)
        (attn_drop): Dropout(p=0.0, inplace=False)
        (leaky_relu): LeakyReLU(negative_slope=0.2)
        (activation): ELU(alpha=1.0)
      )
      (1): GATConv(
        (fc): Linear(in_features=512, out_features=32, bias=False)
        (feat_drop): Dropout(p=0.0, inplace=False)
        (attn_drop): Dropout(p=0.0, inplace=False)
        (leaky_relu): LeakyReLU(negative_slope=0.2)
      )
    )
    (head): Identity()
  )
)